weights/train3_model.pth (torch, 80698 bytes, 5 tensors)

layer1.0.weight f4 [128, 21]
0	0xbdd9ed46	-0.106409594
1	0x3e488933	0.19583587
2	0x3bca4124	0.006172316
3	0xbd165c9c	-0.036709413
4	0xbe48b712	-0.19601086
5	0x3e4a4be0	0.19755507
6	0xbdfb1b4a	-0.12261064
7	0xbe0622ef	-0.13099264
8	0xbd08bf83	-0.033385765
9	0x3e54b4c9	0.20772089
10	0xbe1fd2c7	-0.15607749
11	0x3e137740	0.14400959
12	0x3e65e044	0.22448832
13	0xbdd964f7	-0.10614961
14	0xbd3e9c06	-0.046535514
15	0xbe0911ea	-0.1338574
16	0xbe17560b	-0.14778917
17	0xbe435217	-0.19074284
18	0x3e14ffd4	0.14550716
19	0xbd49c16e	-0.049256735
20	0x3e3b5e70	0.18297744
21	0x3d4498db	0.047997337
22	0x3e622371	0.22083832
23	0xbe229182	-0.1587582
24	0xbdef0f81	-0.11672879
25	0x3deb223d	0.1148114
26	0x3e1a1b2a	0.15049425
27	0x3d9ad2bc	0.07559726
28	0xbdc71e01	-0.0972252
29	0xbe472c3b	-0.19450466
30	0xbe3e26f9	-0.18569554
31	0xbe464fd5	-0.19366391
32	0xbe028725	-0.12746866
33	0x3c944739	0.018100368
34	0x3cb0cba1	0.021581473
35	0xba923f33	-0.0011157751
36	0xbe28db75	-0.16489966
37	0x3dd1f3e0	0.102515936
38	0x3d7423ae	0.05960434
39	0x3e0d58b2	0.13803366
40	0x3cf5873a	0.029971708
41	0x3e0e227d	0.13880344
42	0x3dfb07ad	0.122573234
43	0xbe5702ac	-0.20997113
44	0xbdc0578c	-0.09391698
45	0x3e33b936	0.17551121
46	0x3e52f57a	0.20601454
47	0xbe2e59ee	-0.17026493
48	0x3e4e6a43	0.20157723
49	0xbe1edbbf	-0.15513514
50	0xbcd82d7e	-0.02638888
51	0x3db813b9	0.08988137
52	0xbe1086e8	-0.14113963
53	0xbca13894	-0.019680299
54	0x3e38c1d2	0.18042687
55	0x3e2f650d	0.17128392
56	0x3d455461	0.048176173
57	0xbd721bb5	-0.059108455
58	0xbde9c4f1	-0.11414517
59	0xbd218a53	-0.039438557
60	0x3e4955bd	0.19661613
61	0xbe464425	-0.19361933
62	0xbc7dfea9	-0.01550261
63	0xbdbfb776	-0.09361164
64	0x3d92c93e	0.0716729
65	0xbdb37580	-0.08762646
66	0x3e458da2	0.1929231
67	0xbe04f0dc	-0.12982506
68	0xbe393990	-0.18088365
69	0x3d80713e	0.06271599
70	0xbc0e6a48	-0.008692332
71	0x3d3ac88d	0.045601416
72	0x3e642017	0.22277866
73	0x3df626e6	0.12019138
74	0x3e6f45c1	0.23366453
75	0x3cdb40fb	0.026764384
76	0x3e147050	0.14495969
77	0xbded7627	-0.115948014
78	0xbd1178b4	-0.035515502
79	0x3e4718d8	0.19443071
80	0x3e3a5232	0.18195418
81	0x3e3e08ba	0.18558016
82	0xbde11263	-0.10989835
83	0x3e64095e	0.22269198
84	0x3e24e526	0.16103038
85	0x3d5d4640	0.054022074
86	0xbdbf35b1	-0.09336413
87	0xbe07f4ad	-0.1327693
88	0xbd2edb94	-0.042689875
89	0x3d830e8b	0.06399258
90	0x3e3d98e9	0.18515362
91	0x3e410847	0.18850814
92	0xbc7aacc1	-0.015299977
93	0x3dd79e25	0.105282106
94	0x3e180376	0.1484507
95	0x3d7227e2	0.059120066
96	0x3d44b4b8	0.04802391
97	0xbdb7bdee	-0.08971773
98	0xbc5ae144	-0.013359372
99	0x3d9d74c0	0.07688284
100	0x3e06b5e6	0.13155326
101	0xbc477fd5	-0.012176474
102	0x3e03b7ca	0.12863079
103	0x3dc6bc20	0.09703851
104	0x3e6f4076	0.23364434
105	0xbe1e060f	-0.15431999
106	0xbdc08c7c	-0.09401795
107	0xbca57030	-0.020195097
108	0xbd8a0f21	-0.06741167
109	0xbc0908b1	-0.008363889
110	0xbdc9c91f	-0.09852814
111	0xbd359220	-0.04432881
112	0xbdf0c846	-0.11756949
113	0x3dd42f6c	0.103606075
114	0x3dc1ed01	0.09469033
115	0x3e55fc24	0.20896965
116	0xbe375ab4	-0.17905694
117	0x3e02e4af	0.12782548
118	0x3ddb549a	0.10709496
119	0xbe3c9d74	-0.18419439
120	0x3d2806f2	0.04102225
121	0x3e3f2cd2	0.18669441
122	0xbe2978dd	-0.16550012
123	0x3bd09ac1	0.0063661044
124	0xbe27d0bb	-0.16388218
125	0x3e628d60	0.22124243
126	0xbdcfa589	-0.10138995
127	0xbe018718	-0.1264919
128	0x3e2d0687	0.16897021
129	0x3d8a3f06	0.06750302
130	0xbbb70040	-0.0055847466
131	0x3e23001d	0.15918012
132	0xbddeafe9	-0.10873396
133	0x3da67677	0.08128064
134	0xbdd7bdc9	-0.105342455
135	0x3e4f09fa	0.2021865
136	0xbe0a8e0b	-0.13530748
137	0xbd9deb63	-0.07710912
138	0x3d2b66ac	0.041845962
139	0xbd257c5d	-0.040401805
140	0xbd2a8ec3	-0.041640054
141	0xbe14f250	-0.1454556
142	0xbe24a712	-0.16079357
143	0xbdc3f3f6	-0.09568016
144	0xbdecf9ac	-0.11571059
145	0xbe180508	-0.1484567
146	0xbd5a2b90	-0.0532642
147	0xbd0aea07	-0.033914592
148	0x3a629d89	0.00086446904
149	0x3ccfc685	0.025363216
150	0x3e0ea8b5	0.13931544
151	0xbcdef7c6	-0.027217757
152	0x3e5b8d57	0.21440636
153	0xbd61c668	-0.055120856
154	0x3ca58505	0.02020503
155	0x3e5f147a	0.21785155
156	0x3c68085f	0.014162152
157	0xbe3b228c	-0.18274897
158	0xbe0d1e72	-0.13781145
159	0x3d5b1e11	0.05349547
160	0xbc98eddd	-0.01866811
161	0x3e5eddbb	0.21764271
162	0x3e377aaf	0.17917894
163	0xbd925866	-0.07145767
164	0x3de6a806	0.11262517
165	0xbddda246	-0.10821967
166	0x3c8670af	0.016411154
167	0xbe3f2600	-0.1866684
168	0xbddbd7b3	-0.10734501
169	0xbe239191	-0.15973498
170	0x3e21a2ef	0.1578481
171	0x3e25cc9a	0.1619133
172	0xbd83410d	-0.06408892
173	0x3e098652	0.13430145
174	0xbd2e5bcf	-0.042568024
175	0x3d6d76bb	0.05797456
176	0x3b83b9af	0.004019938
177	0xbde82b8f	-0.11336433
178	0xbdfa80e1	-0.12231613
179	0x3e4f798d	0.20261212
180	0x3d2caeed	0.04215901
181	0x3d869439	0.0657124
182	0x3e2f05f0	0.17092109
183	0xbde2243b	-0.11042067
184	0x3dd1c0bc	0.10241839
185	0xbe1ae285	-0.15125473
186	0x3e07e152	0.13269547
187	0x3d824d79	0.06362433
188	0x3c0d9a35	0.008642723
189	0xbc2aa76e	-0.010415895
190	0xbd8b9e5e	-0.068173155
191	0xbd911c15	-0.07085434
192	0xbcdd29d6	-0.026997488
193	0xbc201625	-0.009770905
194	0x3e4ef7d9	0.20211734
195	0x3dfb8d3e	0.12282799
196	0xbcfb71fc	-0.030694
197	0x3d93a9c6	0.07210116
198	0x3e212da4	0.15740067
199	0x3c6e663e	0.014550744
200	0xbbfc000a	-0.0076904343
201	0xbe1860f8	-0.1488074
202	0xbe0bb0ad	-0.13641615
203	0x3e29dc8c	0.16588038
204	0x3a7f2355	0.0009732743
205	0xba436891	-0.0007454241
206	0x3d8dfa83	0.06932547
207	0xbddf27bc	-0.108962506
208	0xbdade858	-0.08491582
209	0xbe614b02	-0.2200127
210	0xbdd158e8	-0.10222036
211	0xbdb1c8ac	-0.08680853
212	0xbe416304	-0.18885428
213	0xbdd1973d	-0.102339245
214	0x3e37cf52	0.1795018
215	0xbd688e5c	-0.05677639
216	0x3dfe19d3	0.12407269
217	0xbdcb06f9	-0.09913439
218	0xbe0a1dbc	-0.13487905
219	0xbd5e6cc8	-0.05430296
220	0x3dc19645	0.0945249
221	0x3dffcdd7	0.12490433
222	0xbd0c0004	-0.034179702
223	0xbde9d767	-0.11418038
224	0x3dfa9d3a	0.1223702
225	0x3d3ec1fb	0.046571713
226	0xbdbe4771	-0.0929097
227	0xbcc01ca0	-0.02345115
228	0xbd3e1bbc	-0.04641317
229	0x3dc7ff5b	0.09765502
230	0x3e13647c	0.143938
231	0xbda381d9	-0.07983751
232	0xbe257c08	-0.16160595
233	0x3d9d0965	0.076678075
234	0xbe434d01	-0.19072343
235	0xbd876477	-0.06610959
236	0xbe36d33e	-0.1785402
237	0xbde7c51f	-0.11316895
238	0x3d79be8f	0.060972746
239	0x3e520b7a	0.2051219
240	0x3a52c1a7	0.00080397207
241	0xbe556096	-0.20837626
242	0xbe5ef820	-0.2177434
243	0x3e596dcf	0.21233295
244	0xbe14ae12	-0.14519528
245	0xbda4e020	-0.08050561
246	0x3e3ff353	0.18745165
247	0x3e565009	0.20928968
248	0xbd815b45	-0.063162364
249	0x3e09d945	0.13461788
250	0x3e1752ea	0.14777723
251	0x3db5f41e	0.08884452
252	0xbde1b4be	-0.11020802
253	0xbe585ec8	-0.21129906
254	0xbd9d584f	-0.07682859
255	0xbe5b915b	-0.21442167

layer1.0.bias f4 [128]
0	0x3e1abb4a	0.15110508
1	0x3e9451b3	0.28968582
2	0x3e002628	0.12514555
3	0xbdd24094	-0.102662235
4	0xbe8d98a9	-0.27655533
5	0x3e4feb20	0.20304537
6	0x3e591d7c	0.21202654
7	0xbdc55ea3	-0.09637191
8	0xbdbd5563	-0.09244802
9	0x3dfb44cd	0.12268982
10	0x3e59e4f4	0.21278745
11	0x3e3ba204	0.18323523
12	0xbe48b3b8	-0.19599807
13	0x3ddf36b0	0.10899103
14	0xbe7bb08a	-0.24579063
15	0x3e74fc9c	0.23924488
16	0x3e7c1de1	0.24620773
17	0xbe159c45	-0.14610393
18	0x3de089f7	0.10963815
19	0x3db01f78	0.08599752
20	0xbe01082a	-0.1260077
21	0x3e438504	0.1909371
22	0x3e19f6a0	0.15035486
23	0xbdbdd9fd	-0.092700936
24	0x3dda607d	0.10662935
25	0xbd75b1fb	-0.05998419
26	0xbe0bf816	-0.13668856
27	0xbe7f6f90	-0.24944901
28	0x3e213d43	0.15746026
29	0x3ac63cd3	0.0015124328
30	0xbe83375b	-0.2562817
31	0x3c7d71a2	0.015468987
32	0x3e2ecf8f	0.17071365
33	0xbe092dd4	-0.13396388
34	0xbe03ba84	-0.12864119
35	0x3d9ea187	0.07745653
36	0x3e58ff0f	0.21191047
37	0xbd57e3ea	-0.05270759
38	0xbe07c66f	-0.1325929
39	0x3d1a1dfd	0.037626255
40	0x3e05c791	0.1306441
41	0xbe693b53	-0.22776537
42	0x3da4d485	0.080483474
43	0xbdfc0b80	-0.12306881
44	0xbe3cac7b	-0.18425171
45	0x3d3f6c1c	0.04673396
46	0x3e89c234	0.26905978
47	0xbe0deefb	-0.13860695
48	0x3c357df6	0.011077395
49	0x3e5bc6bb	0.21462528
50	0xbdff0a3a	-0.124531224
51	0x3e3ad76e	0.18246242
52	0xbdb13ddc	-0.08654377
53	0xbc0df95f	-0.008665412
54	0x3e457039	0.19281091
55	0xbe452eb3	-0.19256096
56	0xbd084b1c	-0.033274755
57	0xbe3862c3	-0.18006425
58	0x3e4ec4d6	0.20192274
59	0xbceb4c49	-0.028722899
60	0x3d491295	0.049089987
61	0xbc985c81	-0.018598797
62	0xbe2b58ee	-0.16733143
63	0xbaf8834e	-0.001896003
64	0xbe3c72c6	-0.18403158
65	0xbd858490	-0.06519425
66	0x3e6e3e12	0.23265865
67	0xbc0eea94	-0.00872292
68	0xbd25255b	-0.040318828
69	0xbd5a9e54	-0.05337365
70	0xbe90a866	-0.28253478
71	0x3e1e929b	0.15485613
72	0x3d951cf7	0.07280915
73	0xbd3e1309	-0.046404872
74	0xbd6a880e	-0.057258658
75	0x3e1271cf	0.14301227
76	0xbd386b3f	-0.045024153
77	0x3d87d7cc	0.06632957
78	0xbe61a62e	-0.22036049
79	0x3dc08ada	0.09401484
80	0x3d43fe1f	0.04784977
81	0x3e43792f	0.19089197
82	0x3e88d31b	0.2672356
83	0x3c263879	0.0101453
84	0x3dbd2c62	0.09236981
85	0xbe5662b2	-0.20936087
86	0xbd53835f	-0.051638957
87	0x3e4f27da	0.20230046
88	0x3e2726d6	0.16323408
89	0xbc2a273b	-0.01038533
90	0x3d547c84	0.05187656
91	0xbe455b71	-0.19273163
92	0x3d994fb2	0.07485904
93	0x3e56e8af	0.20987199
94	0xbe876804	-0.26446545
95	0xbe556e3d	-0.20842834
96	0x3e9352ed	0.28774205
97	0xbd0676d8	-0.032828182
98	0x3e751a84	0.23935896
99	0x3e77e415	0.242081
100	0xbe18f245	-0.14936168
101	0x3b5315fe	0.0032209153
102	0xbe850225	-0.259782
103	0x3c6f8712	0.014619606
104	0xbe4b839a	-0.19874421
105	0xbe571eff	-0.21007918
106	0xbe45fa70	-0.19333816
107	0x3dff5094	0.12466541
108	0xbc16fe59	-0.009215915
109	0x3e7e7366	0.24848709
110	0x3ce90235	0.028443435
111	0x3e4943ed	0.19654818
112	0xbe3b67b2	-0.18301275
113	0x3e26e535	0.16298373
114	0x3e60d149	0.21954836
115	0xbdd32aa2	-0.10310866
116	0x3e1ed90c	0.15512484
117	0xbd0d24c1	-0.03445888
118	0x3e58fc90	0.21190095
119	0xbded8ee1	-0.115995176
120	0x3e409dc5	0.18810184
121	0x3d916923	0.07100131
122	0x3e4c670b	0.19961183
123	0x3d5bdaca	0.05367545
124	0xbddf91d8	-0.10916489
125	0xbe82bbab	-0.25533804
126	0xbe04d3e5	-0.12971456
127	0xbe534c08	-0.20634472

layer1.2.weight f4 [128, 128]
0	0x3dbfd61c	0.0936701
1	0x3e203994	0.15646964
2	0x3d39918a	0.045304812
3	0xbc35d04f	-0.011097028
4	0xbdd4e1ee	-0.10394655
5	0x3d3873a4	0.04503216
6	0xbd560ec2	-0.052260168
7	0xbc413be2	-0.011794062
8	0xbd4dc752	-0.050238915
9	0x3e62a9de	0.22135112
10	0x3e36c6f9	0.1784934
11	0x3e41d95a	0.1893057
12	0xbd0bdc71	-0.034145776
13	0x3e584ba7	0.21122609
14	0xbbc96fe4	-0.0061473716
15	0x3da8f24f	0.08249342
16	0x3e0282e5	0.12745245
17	0x3cb07126	0.021538328
18	0xb9950019	-0.00028419567
19	0x3d33676e	0.04379981
20	0x3cebcf02	0.028785232
21	0x3ca5dcdd	0.020246917
22	0x3def7636	0.11692469
23	0xbdb4ef6a	-0.08834727
24	0xbd390054	-0.04516633
25	0xbcbb9df1	-0.02290246
26	0xbdd41376	-0.103552744
27	0xbe1c1cc5	-0.1524535
28	0xbdeb32fe	-0.11484335
29	0x3e67a04b	0.2261974
30	0xbc1d1392	-0.009587185
31	0x3d879b4b	0.06621417
32	0x3be8f439	0.0071091917
33	0xbd0221f2	-0.031770654
34	0xbd9e4e86	-0.07729821
35	0x3d9ea70c	0.077467054
36	0x3d308fa6	0.043105744
37	0x3df31470	0.118691325
38	0x3d56d658	0.052450508
39	0xbd143483	-0.03618289
40	0x3d6fb701	0.058524136
41	0xbdca7598	-0.098857105
42	0x3d88937a	0.06668754
43	0x3cfc5de5	0.030806491
44	0x3e72e890	0.23721528
45	0xbc68bd6c	-0.014205318
46	0x3ce0defb	0.027450075
47	0xbceb673e	-0.028735753
48	0xbcd3ccca	-0.025854487
49	0xbe110ba0	-0.14164591
50	0xbde6a672	-0.11262216
51	0x3cf706b7	0.03015457
52	0x3bcd746b	0.0062699816
53	0xbcc77772	-0.024348948
54	0x3d80651d	0.06269286
55	0x3d392d9f	0.045209523
56	0x3cd7556e	0.026285853
57	0xbd5d3e3f	-0.05401444
58	0x3a108853	0.0005513478
59	0x3d9fad27	0.07796698
60	0x3e017724	0.12643105
61	0xbdfcb631	-0.12339438
62	0xbcc34536	-0.023836713
63	0xbd20b8da	-0.03923879
64	0x3db32317	0.08746927
65	0x3c5be6e1	0.013421745
66	0x3e449df5	0.19200881
67	0xbd949445	-0.07254843
68	0x3d8e9162	0.06961323
69	0x3d92f16f	0.07174956
70	0xbdba7813	-0.091049336
71	0xba84ec0f	-0.0010141152
72	0x3d15fae0	0.036616206
73	0x3d6fb36f	0.05852073
74	0xbe5187ac	-0.20461911
75	0xbcb93cba	-0.022611964
76	0x3e2317f7	0.1592711
77	0x3d02be22	0.031919606
78	0xbbdf425b	-0.00681333
79	0x3cca2310	0.024674922
80	0x3d14a49e	0.036289804
81	0x3de199cc	0.110156626
82	0x3cb1663f	0.0216552
83	0x3e284653	0.16433077
84	0xbc21928e	-0.0098616015
85	0xbccbafef	-0.024864165
86	0x3d95f608	0.07322317
87	0x3de60f07	0.11233335
88	0x3dc47212	0.0959207
89	0xbe1af188	-0.151312
90	0x3dca81c8	0.09888035
91	0xbd032306	-0.032015823
92	0xbc8794a1	-0.016550364
93	0x3e16b365	0.14716871
94	0xbe197c91	-0.14988925
95	0xbd5757f7	-0.052574124
96	0x3d9ab4c7	0.07554012
97	0x3cd69ce3	0.026197856
98	0x3c8c0dc9	0.017096417
99	0x3c06c13c	0.008224782
100	0x3d4811f4	0.048845246
101	0x3c417d73	0.011809695
102	0xbdfd78c0	-0.12376547
103	0x3e2a7160	0.16644812
104	0x3b0b7a21	0.0021282511
105	0xbd9db726	-0.077009484
106	0xbc954c0c	-0.018224739
107	0x3ba29ee3	0.0049627884
108	0x3e4c218e	0.19934675
109	0xbe288a6a	-0.16459051
110	0x3d9e4850	0.07728636
111	0x3db32ad1	0.08748401
112	0x3d8325a5	0.064036645
113	0xbd35199a	-0.04421387
114	0x3d9b5819	0.07585163
115	0xbe25bb65	-0.16184767
116	0xbcf501d1	-0.029908093
117	0x3b99c69a	0.0046928646
118	0x3e15bac8	0.14622033
119	0xbcd99f6d	-0.026565278
120	0xbcc48ff1	-0.023994418
121	0x3e423d10	0.18968606
122	0xbe0c6bce	-0.13712999
123	0xbe0fca19	-0.14041938
124	0x3ce34185	0.027741203
125	0xbd248f03	-0.04017545
126	0xbd89382c	-0.06700167
127	0xbd4b1a77	-0.049585786
128	0xbda260b1	-0.07928599
129	0xbcc7b1f1	-0.024376841
130	0xbd86beac	-0.065793365
131	0x3d145c3f	0.036220785
132	0x3cc165ce	0.023608115
133	0xbd0cc31a	-0.03436575
134	0xbb6d35e1	-0.0036195444
135	0x3d928c54	0.07155672
136	0x3c125e17	0.008933566
137	0xbc8c52da	-0.01712935
138	0xbc89b5c2	-0.016810302
139	0x3d2ae2fc	0.041720375
140	0xbd6626c7	-0.056189325
141	0xbd96e5f2	-0.07368077
142	0x3d83b265	0.064305104
143	0xbd870c2e	-0.0659412
144	0xbd95bf55	-0.07311884
145	0xbd86d93c	-0.06584403
146	0xbcac0aea	-0.021001298
147	0xbd8fcb7e	-0.07021235
148	0xbdafc495	-0.08582417
149	0xbd555729	-0.052085076
150	0x3d031619	0.032003496
151	0xbdb7afe5	-0.08969096
152	0xbd49d7f3	-0.04927821
153	0xbd64be80	-0.055845737
154	0xbd89a424	-0.067207605
155	0xbd86ee78	-0.06588453
156	0x3dae6be9	0.08516676
157	0x3cbf3c6a	0.023344237
158	0x3d3bbe6f	0.04583591
159	0xbd6d1aa7	-0.057886746
160	0x3d962e8a	0.07333095
161	0xbda92a37	-0.08260005
162	0x3d58f88c	0.052971408
163	0xbd9e86c6	-0.0774055
164	0x3d7a993f	0.061181303
165	0x3cddf2d3	0.027093327
166	0xbdb706f1	-0.08936871
167	0xbdbc81c9	-0.09204442
168	0x3cd20541	0.02563727
169	0xbccffb3e	-0.025388356
170	0x3d31f5ea	0.043447413
171	0x3d4b35c5	0.049611825
172	0xbd68b35c	-0.056811675
173	0xbc2a5bd2	-0.010397868
174	0x3d3647fd	0.044502247
175	0xbd1aac6a	-0.037762083
176	0x3d68f634	0.056875423
177	0x3d825f7d	0.06365869
178	0x3cfb4bf2	0.030675862
179	0x3d91c26c	0.07117161
180	0xbdac1cab	-0.084039055
181	0xbd106048	-0.03524807
182	0xbc072279	-0.008247965
183	0xbd3778dd	-0.044793
184	0xbc77b24a	-0.015118191
185	0x3b9bbb19	0.0047525284
186	0x3cd1b230	0.025597662
187	0x3cabf0dc	0.020988874
188	0xbdb91941	-0.0903802
189	0xbd357cf7	-0.04430863
190	0xbd8c6808	-0.0685578
191	0xbdaeab3c	-0.08528754
192	0x3d854d60	0.06508899
193	0x3c5746cb	0.013139437
194	0x3d3ad856	0.04561647
195	0x3cc65e74	0.02421496
196	0xbd97a9f5	-0.074054636
197	0x3d8fd647	0.07023292
198	0xbd23a3df	-0.0399512
199	0xbc90f04c	-0.017692707
200	0x3d5d4c2d	0.054027725
201	0xbd35e85f	-0.04441106
202	0xbd591de7	-0.053007033
203	0xbdb6fba1	-0.08934713
204	0xbd5784c3	-0.052616846
205	0xbdaa59aa	-0.08317883
206	0x3c4ddffc	0.012565609
207	0xbd864efd	-0.065580346
208	0xbd6d8a92	-0.05799348
209	0xbd9a0930	-0.075212836
210	0xbca05a7d	-0.019574398
211	0xbd05048a	-0.032475032
212	0x3d4d28e9	0.050087843
213	0x3d02764b	0.031851094
214	0x3b9fbfba	0.0048751505
215	0xbd7414c2	-0.05959011
216	0x3d548b38	0.05189058
217	0xbc85d590	-0.016337186
218	0xbc4b22ec	-0.012398463
219	0x3d030503	0.0319872
220	0x3bffe080	0.007808745
221	0xbd62905d	-0.055313457
222	0xbd057246	-0.032579683
223	0x3d0921bb	0.033479434
224	0xbd7c1ef4	-0.061552957
225	0xbd582254	-0.052767113
226	0xbd993f8d	-0.074828245
227	0xbd80c42b	-0.06287416
228	0x3c4a7d1d	0.012358931
229	0xbd737a99	-0.05944309
230	0xbda3cba1	-0.079978235
231	0xbd6f6661	-0.058447246
232	0xbd390f5a	-0.045180656
233	0xbb11954d	-0.0022214234
234	0x3cdd5c6b	0.027021607
235	0xbcf9c0dd	-0.030487472
236	0x3d8b9f8c	0.068175405
237	0x3d81f5e9	0.06345732
238	0xbd93f995	-0.07225338
239	0x3c251e62	0.010078045
240	0xbd3d53d7	-0.046222534
241	0xbda63857	-0.08116215
242	0x3d745287	0.059649017
243	0x3d930b44	0.07179883
244	0xbd8cc827	-0.068741135
245	0x3ce78cf8	0.028265461
246	0xbce78d4d	-0.02826562
247	0x3d0fa523	0.035069596
248	0x3d5d35ee	0.05400651
249	0x3d84ab7c	0.064780205
250	0x3d8ae984	0.06782821
251	0xbd0b71b3	-0.03404398
252	0x3d9d72cf	0.076879136
253	0x3cafae42	0.021445397
254	0x3d2dfdcd	0.04247837
255	0x3d71e95f	0.05906045

layer1.2.bias f4 [128]
0	0x3e077b05	0.13230522
1	0x3d93d83b	0.07218977
2	0xbd86dc38	-0.06584972
3	0xbdb18a10	-0.086689115
4	0xbd8dd57e	-0.06925486
5	0x3d70571c	0.058676824
6	0x3da64366	0.08118324
7	0xbd35aa1b	-0.04435168
8	0xbd2db024	-0.04240431
9	0x3c6684ce	0.014069749
10	0x3d73ade9	0.059492026
11	0x3c608190	0.013702765
12	0x3db43d65	0.088007726
13	0x3cbb893b	0.022892585
14	0xbda4563e	-0.08024262
15	0x3da539b6	0.08067648
16	0x3e2487a7	0.16067372
17	0xbe0a3dfa	-0.13500205
18	0x3cbf57fd	0.023357386
19	0x3cf34fd6	0.029701155
20	0x3e26add2	0.16277245
21	0x3cee7c0b	0.029111883
22	0xbdaf2a50	-0.08552992
23	0x3d729b0b	0.05922989
24	0xbe140baa	-0.14457574
25	0xbd9c9def	-0.07647311
26	0xbda0a64c	-0.078442186
27	0xbb803003	-0.0039119734
28	0xbd0f2c6f	-0.034954485
29	0x3d6bb8c4	0.057549253
30	0x3be2e846	0.006924662
31	0x3d174604	0.036932006
32	0x3d2ce2aa	0.04220835
33	0xbcca0451	-0.024660261
34	0xbcd2c193	-0.025727069
35	0x3ded6cec	0.11593041
36	0xbbc1f564	-0.0059191454
37	0xbd3b061f	-0.045660134
38	0xbda5a1c1	-0.08087493
39	0xbd473f24	-0.0486442
40	0x3ddf57ad	0.10905395
41	0xbd8a277e	-0.06745814
42	0xbd216f67	-0.039412882
43	0xbd3c1cf2	-0.045926042
44	0x3d85fbbc	0.06542155
45	0xbbff0691	-0.007782765
46	0x3dbde5f3	0.09272375
47	0xbddb5c0b	-0.10710915
48	0xbd238d9b	-0.039929967
49	0xbc1a4094	-0.009414811
50	0xbd6928d9	-0.05692372
51	0x3cec2f5a	0.028831173
52	0xbd5066aa	-0.050879158
53	0xbcc17c63	-0.023618883
54	0x3d644ccd	0.055737305
55	0xbb892e79	-0.004186448
56	0x3b612b6b	0.0034358155
57	0xbd8f8380	-0.070075035
58	0xbd805431	-0.06266058
59	0xbe247f29	-0.16064133
60	0x3d86a46d	0.065743305
61	0x3cfa4ac8	0.030553237
62	0xbd69095c	-0.05689369
63	0x3cbbd2e5	0.02292771
64	0xbc079c88	-0.008277066
65	0xbd303921	-0.043023232
66	0x3d534cae	0.0515868
67	0x3d645d72	0.05575318
68	0x3c95d2b4	0.018288948
69	0x3cda5e4a	0.026656289
70	0xb8a189b7	-7.7027296e-05
71	0xbd8bb3b3	-0.06821384
72	0x3ce60b2e	0.028081503
73	0x3ce7c85b	0.02829378
74	0x3d701dfc	0.058622345
75	0x3d0ddf44	0.03463675
76	0xbc51e148	-0.012810059
77	0x3e2442a4	0.16041046
78	0x3dd8b1f1	0.10580815
79	0x3d9eaf08	0.07748228
80	0xbc88bb58	-0.016690895
81	0xbd9d1bbf	-0.07671308
82	0xbdba7985	-0.09105209
83	0x3d159c14	0.0365258
84	0xbd94d773	-0.07267656
85	0x3d203029	0.03910843
86	0x3c9fdb3f	0.019513724
87	0xbd0d3d52	-0.034482308
88	0x3dd91e77	0.10601514
89	0xbd978ff8	-0.07400507
90	0x3dad1056	0.084503815
91	0x3c4a9265	0.012364005
92	0x3ce961c2	0.028488997
93	0xbdc03884	-0.093857795
94	0xbda53155	-0.0806605
95	0x3d56e925	0.052468438
96	0xbc58d2d8	-0.013233863
97	0xbd627630	-0.055288494
98	0xbc804f4b	-0.01566281
99	0xbd3409ee	-0.043954782
100	0x3d156a65	0.03647842
101	0x3d892a77	0.06697553
102	0xbd730327	-0.05932918
103	0x3e112350	0.14173627
104	0x3d646eeb	0.055769842
105	0x3d350dd7	0.04420265
106	0xbda674f3	-0.08127775
107	0x3d00f1ab	0.031480473
108	0xbccbde59	-0.024886297
109	0xbc05a5c7	-0.0081572
110	0x3d89afde	0.06722997
111	0xbdd715aa	-0.10502179
112	0x3bb24a48	0.005440984
113	0xbd426fed	-0.047470022
114	0x3e2005ba	0.15627185
115	0x3e1953b6	0.1497334
116	0xbd88bb3b	-0.066763364
117	0xbd82807d	-0.063721634
118	0xbcebb045	-0.028770575
119	0xbd2f66e4	-0.042822734
120	0xbc017e6f	-0.007903679
121	0x3d2efd9a	0.042722322
122	0xbc3ccc00	-0.011523247
123	0x3d92740b	0.0715104
124	0x3d3ab31b	0.045580965
125	0x3d275565	0.040852923
126	0x3d2c82f7	0.042117085
127	0x3e25e0f8	0.161991

final_layer.0.weight f4 [1, 128]
0	0xbe0ad02c	-0.13555974
1	0x3ce96d20	0.028494418
2	0x3dc60d57	0.09670513
3	0xbd3eb802	-0.046562202
4	0x3d242322	0.040072568
5	0xbc89981a	-0.01679616
6	0x3e32ee7e	0.1747379
7	0xbd114ad2	-0.035471745
8	0x3d07b073	0.03312726
9	0x3d7dc4f2	0.0619554
10	0x3db2d572	0.08732118
11	0xbe227491	-0.15864779
12	0xbe0df9e9	-0.13864864
13	0x3d6f515f	0.05842721
14	0xbd978a4c	-0.07399425
15	0x3c5c33fb	0.0134401275
16	0xbe1a3165	-0.15057905
17	0x3e159f78	0.14611614
18	0x3e035c74	0.12828237
19	0xbe3b7e03	-0.18309788
20	0xbe19b176	-0.15009102
21	0x3d9b0aa8	0.07570392
22	0xbdae21fd	-0.085025765
23	0xbd3bb411	-0.04582602
24	0x3e20c742	0.15701011
25	0xbd9896e6	-0.074506566
26	0x3cbe9d70	0.023268431
27	0xbbe23caa	-0.0069042044
28	0x3d3de1be	0.046357863
29	0xbdf421cc	-0.11920509
30	0x3d78bc31	0.06072635
31	0xbe109b1d	-0.14121671
32	0x3d108f47	0.03529289
33	0x3dd6f7a4	0.104964525
34	0xbd8786b0	-0.066174865
35	0x3e833b4c	0.25631177
36	0xbda7317b	-0.081637345
37	0xbd96b6be	-0.07359074
38	0xbcf77148	-0.030205384
39	0xbd3e7161	-0.046494845
40	0x3e3a9fe6	0.18225059
41	0x3e131281	0.14362527
42	0x3e00b129	0.12567581
43	0xbde34955	-0.11097971
44	0x3da2ec44	0.0795522
45	0x3e79b876	0.24386773
46	0xbe38cbf5	-0.18046553
47	0x3da9c6b8	0.08289856
48	0x3d787958	0.060662597
49	0xbd0f59a5	-0.0349976
50	0xbdada7b5	-0.08479253
51	0x3daed3b3	0.08536472
52	0x3dc74d92	0.09731592
53	0xbd9c3048	-0.076263964
54	0x3d822044	0.063538104
55	0xbdfc58e1	-0.1232164
56	0x3daf3b55	0.085562386
57	0x3e22b33d	0.15888686
58	0x3bc55bdb	0.006022913
59	0x3df84026	0.1212161
60	0x3d66627d	0.05624627
61	0xbdb6d34c	-0.089270204
62	0xbd607237	-0.054796424
63	0xbcd4ee0a	-0.025992412
64	0xbe1d6804	-0.1537171
65	0xbcdac4ae	-0.026705112
66	0xbd6c0bf3	-0.057628583
67	0x3d74f638	0.059805125
68	0xbd25b24b	-0.040453237
69	0x3d60eb30	0.054911792
70	0x3e830476	0.2558934
71	0xbd09d723	-0.033652436
72	0xbd0ed710	-0.03487307
73	0x3db9e10a	0.09076126
74	0x3da8f014	0.08248916
75	0x3d8d4b28	0.068991005
76	0x3e27aaac	0.163737
77	0xbdffe83f	-0.12495469
78	0xbe0ae5f7	-0.13564287
79	0x3d98a57d	0.074534394
80	0x3c350cc9	0.0110504115
81	0xbc8325c8	-0.016009226
82	0x3d30eb99	0.043193433
83	0x3d3d2b41	0.04618383
84	0x3dd08511	0.101816304
85	0x3d59eede	0.053206317
86	0xbb1b4f76	-0.0023698485
87	0x3d5aac1e	0.0533868
88	0xbe07949c	-0.13240284
89	0x3ded949f	0.11600613
90	0xbe28b549	-0.16475405
91	0xbd841014	-0.06448379
92	0x3da8394e	0.08214055
93	0xbd9206dc	-0.071302146
94	0x3da00e6c	0.07815251
95	0x3b0ef6ed	0.002181466
96	0xbcf6310f	-0.03005269
97	0x3da2d938	0.079515874
98	0xbd39bab1	-0.04534406
99	0x3e05600e	0.13024923
100	0x3dbae371	0.09125412
101	0xbe464ea5	-0.19365938
102	0x3c4bf03f	0.012447416
103	0xbdfab982	-0.12242414
104	0xbb572641	-0.0032829198
105	0xbe311e91	-0.17296816
106	0x3e04474e	0.12917826
107	0x3e211039	0.15728845
108	0x3d948526	0.072519585
109	0xbc888379	-0.016664254
110	0x3dcc43c6	0.09973864
111	0x3d9ddccd	0.0770813
112	0xbd1f8d6e	-0.038953237
113	0xbd36c4e7	-0.044621374
114	0xbe1a80e2	-0.15088227
115	0xbe37fa27	-0.1796652
116	0x3d0c6206	0.03427317
117	0xbda92e8f	-0.082608335
118	0x3d690786	0.05689194
119	0xbd7a47f5	-0.06110378
120	0x3d2a1767	0.041526224
121	0xbdbb037f	-0.09131526
122	0xbcaeec5c	-0.02135294
123	0xbdff4871	-0.12464989
124	0x3d6e6896	0.05820521
125	0xbe000594	-0.12502128
126	0xbdfa21ec	-0.12213501
127	0xbe32db97	-0.1746658
